JARVIS/anush.pth (torch, 5343 bytes, 6 tensors)

l1.weight f4 [8, 53]
000000 c0 30 9b bd 38 4a 20 3d 5c 64 a6 3d 9e 2b 6f bd
       -0.07577658 0.03913328 0.08124611 -0.058391206
000010 91 66 ca bd 43 9f 2f 3e c4 79 3f bd e3 22 1e bd
       -0.09882844 0.17150597 -0.046746984 -0.03860749
000020 47 3a 25 3e 4a 1e 23 bd ab 32 3f be e8 ea e8 bd
       0.16135512 -0.039823808 -0.18671672 -0.1137293
000030 28 04 f6 bc 81 a6 7f 3d 5c 6c 5b be 80 b2 28 bd
       -0.030031279 0.06241465 -0.21428055 -0.041185856
000040 6c 1e 73 3d 52 42 0b be ea 38 34 bd 69 83 1c be
       0.059355184 -0.13599518 -0.04399959 -0.15284504
000050 0c c7 c3 bd dc f5 2f bd f1 31 5d bd 7e d0 72 bd
       -0.095594496 -0.04295908 -0.054002706 -0.059280865
000060 91 89 16 3c c2 b1 9b bd f1 a2 03 3e 3a 31 3c bd
       0.009188072 -0.07602264 0.12855126 -0.045945384
000070 64 1f 29 3e 2f 36 e6 bd b5 d7 a2 3e 13 36 aa bd
       0.16515881 -0.112408035 0.31805196 -0.08311095
000080 9c ea 22 be e0 16 dd 3c 22 84 05 be 53 41 42 bd
       -0.15909809 0.026988447 -0.13038686 -0.04742558
000090 c0 4c 30 3b 14 23 9a 3d 30 2f 1d 3d 51 4e fc bc
       0.0026901215 0.07526222 0.03837508 -0.030799063
0000a0 fa a9 ba bd ac c5 57 3d 62 d6 87 be 2a 1e 9a bd
       -0.09114452 0.05267875 -0.2653075 -0.075252846
0000b0 13 2e 83 3f 86 9c 14 be 98 d5 d8 3c 65 73 bf 3e
       1.0248436 -0.14512834 0.026469037 0.37392727
0000c0 be 81 55 bd 1c f1 1b be 9b c7 c8 3e cb 6e be 3e
       -0.052125685 -0.15228695 0.39214787 0.37193903
0000d0 84 7f 11 bd 32 e3 7f 3d e4 69 45 bd 4a 3d bc 3e
       -0.035522 0.06247253 -0.04819669 0.3676551
0000e0 7c ff 1b 3f d5 37 0d 3f 09 8f 0d bf 88 9f 7c 3e
       0.60936713 0.5516332 -0.5529638 0.24670231
0000f0 94 78 2a 3f 4e 2b c1 3e 63 fa 66 3e f9 ee 43 3f
       0.6659024 0.3772835 0.22556452 0.7653652
000100 e8 7d f6 3c 71 72 13 3f 2a 98 28 be a4 c6 4f ba
       0.030089334 0.575965 -0.16464296 -0.0007926023
000110 b2 fa 05 3f bd 6a a2 be b1 ad 87 3e ca bc 5d 3f
       0.52335656 -0.3172206 0.26499704 0.86616194
000120 64 0b 77 3e 71 92 53 3f c4 89 5f 3f c2 c2 6d 3f
       0.24125439 0.82645327 0.8731959 0.928753
000130 9e 51 52 bf 16 56 97 3e f1 ca e0 3e 50 95 8d 3e
       -0.8215579 0.29557866 0.43904832 0.2765298
000140 27 4b 15 3e 41 c0 9d be 20 b6 38 3e 08 55 9a be
       0.1457945 -0.3081074 0.18038225 -0.30143
000150 7c e9 34 bf e1 b5 9c bd 32 db 53 3e 28 a2 99 be
       -0.7066877 -0.07651878 0.20689085 -0.30006528
000160 8c eb cd 3e 2f 29 10 bf 7e 24 2a bf 4c bf 08 3f
       0.4021877 -0.5631284 -0.6646193 0.53416896
000170 f4 c7 fb be f8 2a 02 bf 64 37 ec 3e 0f 5e 35 3e
       -0.4917599 -0.50846815 0.4613601 0.17711662
000180 c0 f1 1a be dd 63 40 bf 17 b8 a9 3e c8 49 e7 3e
       -0.15131283 -0.7515238 0.33148262 0.45173478
000190 be 0c 5c be 6c 6b d2 bd c4 10 05 3f 48 d2 eb be
       -0.21489236 -0.10274395 0.5197871 -0.4605887
0001a0 1d 2b 9b 3e 48 48 14 bf df e7 22 3e a0 f8 fd 3e
       0.3030633 -0.5792279 0.15908764 0.49603748
0001b0 35 14 1a 3f 8b 96 a9 3e ef 92 92 3e 99 d8 aa 3e
       0.60187083 0.33122668 0.28627726 0.33368376
0001c0 bc be 41 3f 82 5a a8 bd 1b 5e 1d 3e f3 88 05 bd
       0.7568166 -0.08220388 0.1536793 -0.032601308
0001d0 ae 78 db 3d 34 67 0e bf ba 56 c5 bd 49 2f 06 3f
       0.10716377 -0.55626225 -0.096356824 0.524159
0001e0 79 6c b9 3e 21 f6 c6 3e da 0d a6 be ed 81 9f 3d
       0.3621557 0.38859656 -0.32432443 0.07788453
0001f0 b5 bb 04 bf 16 85 a5 3e 45 3b 01 bf 1b b0 04 bf
       -0.5184892 0.323281 -0.50481063 -0.51831216
000200 03 73 04 bf 95 89 83 ba e6 16 34 be 79 d0 d7 3e
       -0.51737994 -0.001003551 -0.1758686 0.4215124
000210 7e ba 6e 3e 42 71 24 3d cf 1e 89 3e c1 17 65 3c
       0.23313329 0.040147074 0.26781318 0.013982714
000220 0e ba 14 3e b8 4a 03 3f 27 05 09 3f 9b 98 bd be
       0.14524099 0.51285887 0.53523487 -0.3703049
000230 15 79 d4 3e 05 e6 0d 3f 5d ea 0f 3f e1 6c b8 be
       0.41498628 0.55429107 0.56216985 -0.36020568
000240 e4 31 3d 3e 1c 0c 8f be ea 80 65 3e ce 87 44 3f
       0.18476063 -0.27938926 0.22412458 0.7676972
000250 14 d6 0e be 8b 3b 15 3f 05 71 63 3e 85 0f fa 3e
       -0.13948852 0.5829398 0.22211082 0.48839965
000260 51 9d 1b 3f 0a fb 1f 3e 6a 19 21 3f ac 55 41 3f
       0.6078692 0.15623108 0.62929404 0.7552135
000270 e4 90 bb 3d 8b d9 e4 3e be 82 ca be 5c 03 b1 be
       0.09158495 0.44697222 -0.39552873 -0.34572875
000280 22 09 04 3f fe 41 85 bd 32 02 a5 3e 54 fd 09 bf
       0.51576436 -0.06506728 0.32228237 -0.53902173
000290 4e e9 4a 3f c9 74 6b 3c e1 0e 16 bf 5d e8 62 be
       0.79262245 0.0143711055 -0.58616453 -0.22158952
0002a0 dc 12 1c 3f 9a 5e 82 be 9b a5 7a be 26 f9 f9 be
       0.6096628 -0.254628 -0.24477236 -0.48822898
0002b0 f1 cf 04 3f 3f f1 06 3d 28 61 62 bd ab c3 cd bc
       0.51879793 0.032944914 -0.055268437 -0.025117716
0002c0 6e 55 2d 3f ad eb 33 bf 99 54 1e be 9c f0 33 bf
       0.6770848 -0.7028149 -0.15461959 -0.70289016
0002d0 92 12 34 bf f9 f0 33 bf cc 48 ed bd da 1c 6d be
       -0.70340836 -0.7028957 -0.115861505 -0.23155537
0002e0 b1 5c a9 3e 6d 3a ad 3e 9b 0e 2b be 36 2b 49 3f
       0.3307853 0.33833638 -0.1670479 0.7858156
0002f0 fb e5 c3 3e 76 9c 0b be ac e9 df 3d b9 12 d3 3e
       0.382614 -0.13633904 0.10933241 0.41225222
000300 a0 bd 67 bd 57 bf 96 3e ce dd 82 3e 5b cc f4 3e
       -0.056577325 0.29442856 0.2555985 0.4781216
000310 ad 67 6d be 42 b5 b4 3e e9 6d c2 3d 26 39 2e be
       -0.2318408 0.3529454 0.0949362 -0.17013988
000320 be 2a 95 3e 42 d7 5a 3e ca 86 01 3f 25 1b 48 3f
       0.29134172 0.21371177 0.50596297 0.7816642
000330 5b c3 8a 3e 8c 1f 09 be 8f 78 e8 bd be 34 e7 3e
       0.2710217 -0.1339094 -0.1135112 0.45157427
000340 2b ba bb 3e c4 eb 52 bc 73 74 0f 3f 8e 01 da be
       0.36665472 -0.012873594 0.5603706 -0.4257931
000350 f3 64 cf 3e 02 62 92 3e f8 aa d3 be e4 de 4a bf
       0.40506706 0.285904 -0.41341376 -0.79246354
000360 7f 5d 9e 3e ac 04 1c 3f 30 0f df 3e 38 49 20 3f
       0.30930707 0.6094463 0.43566275 0.6261172
000370 60 01 8b 3e 22 e9 d0 be 12 5f cb 3d 08 c6 56 3e
       0.27149487 -0.40802866 0.099302426 0.2097398
000380 79 41 17 3f ef 09 99 3d 8c 80 fd 3e bf 01 d9 be
       0.5908428 0.07472598 0.49512136 -0.42384145
000390 66 11 3e 3b 08 f6 d0 be d9 bb 6f be fa cc 5a 3e
       0.002900207 -0.40812707 -0.23411502 0.21367255
0003a0 24 44 69 be 3e 31 be be 74 a8 a1 be bb ee 1d 3f
       -0.227799 -0.37146944 -0.31573832 0.616924
0003b0 3e 7e dc 3e 2a 65 af be 12 2a 76 be 24 63 6a 3e
       0.43065065 -0.3425687 -0.24039486 0.22889382
0003c0 83 56 f2 3e eb 38 b5 be e7 15 25 3e bb 63 2d 3f
       0.47331628 -0.35394987 0.16121636 0.677303
0003d0 e0 91 98 3e e5 dc c6 3b 8e 07 a6 be 94 bc 20 bf
       0.29798794 0.006068813 -0.3242764 -0.6278775
0003e0 11 08 5f bd f2 89 cc 3e 10 cf 51 be dc 1b cd bc
       -0.054451052 0.39948994 -0.20489144 -0.025037698
0003f0 8e f4 ea 3e 2c a0 80 3d 9e 1f 93 be 33 bb 1a 3e
       0.45889705 0.0628055 -0.2873506 0.15110473

l1.bias f4 [8]
000000 5d 9c 1d 3d 87 72 5c 3f f3 75 04 3f 41 ee 33 3f
       0.038479198 0.86112255 0.51742476 0.7028542
000010 fe f0 d0 3e e8 f6 97 3f 54 0f db 3e c3 58 42 3f
       0.40808862 1.1872225 0.42785132 0.7591669

l2.weight f4 [8, 8]
000000 10 4d 95 be d6 7a b5 3f 87 86 ef be 3a 0b e9 be
       -0.29160357 1.4178112 -0.46782324 -0.45516378
000010 a0 57 08 bf a0 eb d4 3f aa d6 6e be 43 2d e4 3d
       -0.53258705 1.6634407 -0.23324075 0.111414455
000020 c8 55 b4 3e fd 96 40 bd 18 a1 3a bf ed 3a 02 bf
       0.35221696 -0.047018994 -0.7290206 -0.50871164
000030 f2 3d 96 3f bb 5e 7c 3f 98 a1 3d 3f b5 7d 73 3f
       1.1737654 0.9858205 0.740747 0.9511369
000040 83 8d 06 3f 6a a0 11 bf d2 f2 16 3f 3a 0d 8c 3e
       0.5255968 -0.568854 0.58964264 0.2735384
000050 05 11 48 3f d1 59 a9 be da c2 66 3f 8c 6a 9b 3f
       0.7815097 -0.33076337 0.9014107 1.214189
000060 e2 38 fc 3e ef fb ba 3e fa 7a 8a 3f b5 b8 e2 3d
       0.49262148 0.36520335 1.081878 0.11070386
000070 1a 55 a0 3f 48 05 54 bf 00 e9 9c 3f a5 51 a9 be
       1.2525971 -0.8282056 1.2258606 -0.33070102
000080 e1 73 bf be da db 97 3f ae 7c c7 3d 3e 25 90 bf
       -0.37393096 1.1863968 0.09740578 -1.1261365
000090 f5 2e 8b 3e 19 55 cb 3d 11 25 a1 3f 51 67 d4 3e
       0.27184263 0.099283405 1.2589437 0.41485074
0000a0 18 15 78 bd f1 fd 02 be 80 ac be be 9f d7 68 bb
       -0.06056699 -0.12792183 -0.37240982 -0.003552891
0000b0 14 ce 1d 3e 3a 04 81 3e dc 21 8b 3b d8 8e 4a be
       0.15410644 0.25198537 0.0042459797 -0.19781053
0000c0 fc 79 e3 be dc 9c a3 3f c8 86 8d 3f cb d4 b0 3f
       -0.44429004 1.2782245 1.1056757 1.3814939
0000d0 d8 e1 0e be 0f dd 46 3f fb 7e d6 be da 8d 26 bf
       -0.1395334 0.7768106 -0.41893753 -0.650602
0000e0 d5 0d 80 bf ff 28 46 3e 49 b3 a0 3e e4 ae 8d bd
       -1.0004221 0.19351576 0.31386784 -0.06918123
0000f0 47 f3 66 3f e3 5f 42 be b9 a2 01 bf ad da 7d 3f
       0.9021496 -0.1898189 -0.5063892 0.991618

l2.bias f4 [8]
000000 c5 f7 5b 3f 12 da 25 3f 1b 19 27 3f 18 5e d1 3c
       0.8592494 0.64785874 0.6527268 0.025557563
000010 8d 26 7e bd aa 92 68 be 6a 6a 62 3f f7 2b 0d bf
       -0.062048484 -0.22712198 0.88443625 -0.5514521

l3.weight f4 [8, 8]
000000 aa 94 50 bd 3b 16 d8 bf e1 7b 49 bf 3d 6c 13 3f
       -0.050923027 -1.6881784 -0.7870465 0.57587034
000010 b7 fe 86 3e 40 bc ef bd 33 f7 0d 3f 30 cb ad bf
       0.26366207 -0.11705828 0.5545532 -1.3577633
000020 dd 52 e7 bf 77 02 26 3e 11 f6 d0 3e b6 06 ae 3e
       -1.8072163 0.16211878 0.40812734 0.33989495
000030 6c 25 08 3e e4 2f 1f 3e c9 91 ce bf da 42 a4 be
       0.13295525 0.15545613 -1.613824 -0.32082254
000040 a9 9c 8f 3e 34 05 0e 3f 35 bb 75 be ad ac 9f bf
       0.2804921 0.5547669 -0.23997195 -1.2474571
000050 73 d9 9f be 1a 98 5f bd c6 4a b1 bf 38 50 50 3f
       -0.31220588 -0.054588415 -1.3850944 0.81372404
000060 22 51 39 be da 26 48 be 7c 1b 1d bf b1 73 25 3e
       -0.18097356 -0.1954607 -0.6137006 0.16157414
000070 f4 02 2e 3f a6 a9 8c 3e 2b d8 9f be c0 e6 e2 3c
       0.67973256 0.2747318 -0.3121961 0.02769792
000080 71 b3 61 3f 71 11 a4 bd c6 d4 96 bf b6 f9 fe be
       0.8816443 -0.08011139 -1.1783683 -0.4979989
000090 ee be 07 c0 5c 9a e9 bd 1d 93 17 3f ee 5a 92 bf
       -2.1210284 -0.11406395 0.5920885 -1.1434
0000a0 10 b1 34 3f ff 88 94 3e 43 5c c8 be f1 c4 93 bf
       0.70582676 0.2901077 -0.3913289 -1.1544477
0000b0 d7 ef 16 3f bd 7e 6e 3e a2 73 b3 be 29 84 e9 bf
       0.58959717 0.23290534 -0.35049158 -1.8243457
0000c0 0b b8 a3 bf a8 68 d8 bf 3b e9 b2 3e 88 43 cf 3d
       -1.279054 -1.6906939 0.34943566 0.101203024
0000d0 49 0b 35 bf 8f 68 89 3e b6 6b c0 3e a1 05 0f 3f
       -0.70720345 0.26837584 0.37582177 0.55867964
0000e0 bd 92 00 bf 77 bf 05 3f d5 74 0d 3f 32 0e 56 be
       -0.50223905 0.5224528 0.55256397 -0.20903853
0000f0 64 13 0c c0 f2 4f 24 bc 7d 1a 4d 3d 4a 61 d5 be
       -2.1886835 -0.010028826 0.05007409 -0.41675788

l3.bias f4 [8]
000000 90 a0 9c be ce f8 8c be 72 c1 b5 be 72 a9 0f bf
       -0.3059125 -0.27533573 -0.3549915 -0.5611793
000010 34 11 fd 3e 41 7e 33 be 8a 4f 39 3e 96 45 1c 3e
       0.49427187 -0.17528631 0.18096748 0.1526092
