JARVIS/jarvis.pth (torch, 6879 bytes, 6 tensors)

l1.weight f4 [8, 84]
0.51103616 0.49158645 0.63791317 -0.3220348 -0.23974505 0.11446553 -0.38400698 0.64354753
0.581302 0.40557542 0.9559321 0.7104886 0.68822986 0.23795192 0.4928657 -0.7858205
-0.35183915 -0.4019029 0.23191775 -0.038143177 -0.11857139 0.43948442 -0.14772893 -0.43393797
0.66019344 -0.7857967 -0.27772573 -0.78579336 -0.785811 -0.78571886 -0.78178436 0.98281777
0.5949032 -0.5112051 0.5209621 0.22376359 -0.18263526 -0.35956913 -0.28996515 0.57013184
0.69323564 -0.0046426 0.679527 0.32268336 -0.06507172 0.6264325 0.44694626 -0.24232009
-0.092281215 -0.47777072 -0.10887045 -0.17610912 0.33360106 1.0836931 0.7330638 0.63514274
0.76950204 0.09589421 0.48235962 -0.49449778 -0.72839695 0.35793298 -0.06558025 -0.6820225
-0.40178475 0.54453105 0.16898148 0.43663704 0.07833078 0.04972593 -0.18650033 0.71887434
-0.001523891 -0.024925442 0.6316472 -0.12672661 -0.95998806 0.5165436 -0.16410713 -0.39202547
0.43976852 0.53055686 0.21218249 -0.046174556 -0.41094592 0.44849676 -0.93997014 0.34450796
0.34792298 0.2599744 -0.17753668 -0.09659832 -0.65857685 0.54033077 0.72617865 0.6373294
-0.6125801 -0.59140056 0.38885567 -0.9413189 0.499213 -0.83698964 0.6893278 0.06620094
-0.6197378 -0.25298765 -0.28340352 0.55156296 0.0071065687 0.711231 -0.53590643 0.65124243
0.67199856 0.6801077 0.62915534 0.8511229 0.559649 0.5457424 -0.257253 -0.57926995
-0.19346282 0.19831906 0.58767766 -0.47251427 -0.27109256 0.36018252 -0.52308124 -0.037237447
-0.5712835 0.44407344 -0.22846423 -0.006340243 -0.5564687 -0.06483102 0.3230684 0.54025537
0.3391918 0.8309304 -0.012712844 -0.075393796 -0.6281621 -0.060944036 -0.27805 -0.6105012
-0.9565334 -0.08313329 0.46046665 -0.45253897 -0.6280923 -0.24793272 0.11374755 -0.3196598
1.1773815 1.0292718 0.40409267 0.64088565 0.082266875 -0.13551737 -0.21159543 -0.2763726
0.2629774 -0.5931632 -0.08033558 0.4753997 -0.8645587 -0.23979014 0.2910832 -0.5343014
1.0597914 -0.37500122 0.86254996 -0.071430445 -0.46738717 0.06271488 0.194089 0.4129537
0.22224441 -0.44895786 -0.80007213 -0.03678468 0.7934114 0.6705778 -0.47374278 0.7839636
-0.3347525 0.42825896 -0.54101133 -0.0021014141 0.34884387 0.7655689 0.49605104 -0.30765727
0.4548784 -0.6425174 0.4483657 -0.642499 -0.64243305 -0.6423929 -0.6424111 -0.16348463
0.24465989 -0.35546932 0.61715996 0.27756745 0.4753893 0.5157971 -0.57721925 0.8742579
0.52377594 -0.03276716 0.7780055 0.2034738 0.29098383 -0.4469158 0.8539584 0.06724622
0.68921465 0.4176345 0.10012636 -0.15442577 -0.13932241 -0.21343042 -0.55926305 -0.44135734
0.7340228 0.5076811 0.5481248 0.7033032 1.0142735 0.2615447 -0.19405393 0.42783034
0.6130205 0.58030504 0.21175571 0.89689046 -0.79801106 -0.6424027 -0.51360655 -0.016493814
0.29477262 0.32955605 0.57746005 0.41946405 -0.6237075 0.7345947 -0.0053292224 -0.5177089
0.78793013 -0.14161502 0.18160185 0.865713 -0.32878152 -0.30870745 0.79520184 -0.49983072
00000000: 44d3 023f 38b1 fb3e 474e 233f bfe1 a4be
00000010: ba7f 75be e76c ea3d 909c c4be 88bf 243f
00000020: 35d0 143f 95a7 cf3e f7b7 743f 95e2 353f
00000030: d52f 303f aba9 733e e558 fc3e 882b 49bf
00000040: 4324 b4be 38c6 cdbe d97b 6d3e 053c 1cbd
00000050: 8fd5 f2bd 1a04 e13e 4146 17be 1e2d debe
00000060: 7002 293f f929 49bf 1132 8ebe c129 49bf
00000070: e92a 49bf df24 49bf 0523 48bf f299 7b3f
00000080: 934b 183f 56de 02bf c65d 053f 4822 653e
00000090: bd04 3bbe 7219 b8be 5076 94be 29f4 113f
000000a0: e477 313f f420 98bb 7bf5 2d3f c136 a53e
000000b0: 5244 85bd e15d 203f 24d6 e43e c222 78be
000000c0: effd bcbd 5d9e f4be 78f7 debd f355 34be
000000d0: c2cd aa3e 75b6 8a3f 12aa 3b3f b798 223f
000000e0: 16fe 443f 2f64 c43d d7f7 f63e d02e fdbe
000000f0: 3978 3abf fe42 b73e f04e 86bd 0799 2ebf
00000100: bbb6 cdbe 6366 0b3f 7b09 2d3e e48e df3e
00000110: e36b a03d 6bad 4b3d f1f9 3ebe 2608 383f
00000120: 4cbd c7ba 7130 ccbc a2b3 213f 9fc4 01be
00000130: c7c1 75bf 343c 043f b30b 28be 90b7 c8be
00000140: 5729 e13e 93d2 073f 5e46 593e 8821 3dbd
00000150: 8167 d2be 5ea1 e53e e2a1 70bf 5963 b03e
00000160: f622 b23e 5d1b 853e 2dcc 35be 57d5 c5bd
00000170: 7e98 28bf 1e53 0a3f d8e6 393f 0528 233f
00000180: 0dd2 1cbf 0766 17bf 1718 c73e 47fa 70bf
00000190: d998 ff3e f444 56bf c977 303f 5c94 873d
000001a0: 23a7 1ebf 9987 81be 441a 91be 3b33 0d3f
000001b0: 38de e83b 3c13 363f 2a31 09bf d3b7 263f
000001c0: 1908 2c3f 8a1b 2e3f 5310 213f 31e3 593f
000001d0: 2845 0f3f c6b5 0b3f aab6 83be 094b 14bf
000001e0: 1e1b 46be 2714 4b3e 0b72 163f 64ed f1be
000001f0: a5cc 8abe d869 b83e a7e8 05bf 4b86 18bd
00000200: a33f 12bf 985d e33e 87f2 69be d0c1 cfbb
00000210: bc74 0ebf 20c6 84bd 3969 a53e 2d4e 0a3f
00000220: 8caa ad3e dbb7 543f 8849 50bc 1068 9abd
00000230: 3bcf 20bf 74a0 79bd 925c 8ebe cf49 1cbf
00000240: 5fdf 74bf c941 aabd 49c2 eb3e 30b3 e7be
00000250: a8ca 20bf 13e2 7dbe 7af4 e83d 73aa a3be
00000260: 70b4 963f 2ebf 833f 3ce5 ce3e 1511 243f
00000270: 897b a83d 11c5 0abe 79ac 58be b680 8dbe
00000280: f9a4 863e 8bd9 17bf fb86 a4bd 9767 f33e
00000290: b853 5dbf 8c8b 75be db08 953e fac7 08bf
000002a0: 3fa7 873f 2900 c0be 13d0 5c3f 204a 92bd
000002b0: 5f4d efbe a970 803d 44bf 463e ab6e d33e
000002c0: 0a94 633e cedd e5be 87d1 4cbf 88ab 16bd
000002d0: 021d 4b3f fdaa 2b3f 6a8e f2be d7b1 483f
000002e0: ae64 abbe c244 db3e b87f 0abf e1b7 09bb
000002f0: aa9b b23e 53fc 433f 67fa fd3e 4185 9dbe
00000300: d2e5 e83e 057c 24bf 3090 e53e d17a 24bf
00000310: 7e76 24bf dc73 24bf 0e75 24bf 8468 27be
00000320: 1f88 7a3e 1300 b6be 32fe 1d3f 521d 8e3e
00000330: 3a66 f33e 470b 043f a4c4 13bf 5ecf 5f3f
00000340: 2e16 063f dc36 06bd 5e2b 473f 705b 503e
00000350: d5fb 943e 26d2 e4be 059d 5a3f 63b8 893d
00000360: 5f70 303f 30d4 d53e 0d0f cd3d ca21 1ebe
00000370: 89aa 0ebe 818d 5abe dd2b 0fbf 97f9 e1be
00000380: ebe8 3b3f 63f7 013f e851 0c3f ae0b 343f
00000390: b7d3 813f 30e9 853e 13b6 46be 940c db3e
000003a0: e9ee 1c3f df8e 143f 7dd6 583e 9d9a 653f
000003b0: 744a 4cbf 8174 24bf b87b 03bf 091e 87bc
000003c0: 70ec 963e 92bb a83e 6cd4 133f fec3 d63e
000003d0: 4bab 1fbf 660e 3c3f c2a0 aebb 9288 04bf
000003e0: cab5 493f 8703 11be d6f5 393e 5e9f 5d3f
000003f0: 0d56 a8be e70e 9ebe 5992 4b3f d0e9 ffbe

l1.bias f4 [8]
0.7858572 1.0490625 0.6423956 1.0479891 0.40727112 0.89896417 0.78963083 0.9022401
00000000: f02d 493f ae47 863f 0a74 243f 8224 863f
00000010: d785 d03e 8422 663f 3f25 4a3f 35f9 663f

l2.weight f4 [8, 8]
1.1873714 1.8816333 -1.2879995 -0.7196384 0.95984435 1.0517927 -1.740961 1.6114628
-1.8730743 0.3074228 -0.6490757 -0.0061017815 -0.19571975 0.7863501 0.53455776 1.2195787
-1.4102702 -0.05031932 0.027320188 0.54919946 1.8999046 0.6426844 0.59300125 0.98976225
0.72387314 0.91030276 -0.43283054 1.2066717 -1.3642577 -1.3972785 0.26007956 1.3365856
0.31976587 -0.9589607 2.2026432 0.64809674 -0.73525655 0.26826635 1.8179072 1.6166463
-0.4866658 1.3474543 -0.85715556 1.2532794 0.23525508 -1.0594717 0.81299037 0.29771826
0.16475825 0.965989 -0.17470194 0.7520619 -1.5625216 1.7826749 0.7990357 -0.47891846
-0.5257287 -0.81038374 0.6380531 0.8853987 -0.64471596 -0.20691821 -0.2710552 1.7066506
00000000: c9fb 973f 5cd9 f03f 2bdd a4bf 393a 38bf
00000010: 5cb8 753f 25a1 863f cfd7 debf 6a44 ce3f
00000020: e6c0 efbf 8566 9d3e d329 26bf 74f1 c7bb
00000030: c26a 48be 3d4e 493f c7d8 083f 281b 9c3f
00000040: bc83 b4bf a21b 4ebd 96ce df3c 5698 0c3f
00000050: 1330 f33f f786 243f eece 173f 0f61 7d3f
00000060: c04f 393f 9a09 693f f79b ddbe 3874 9a3f
00000070: ff9f aebf 06da b2bf 2629 853e 3d15 ab3f
00000080: 5ab8 a33e 737e 75bf 1bf8 0c40 abe9 253f
00000090: c639 3cbf 355a 893e 2fb1 e83f 44ee ce3f
000000a0: 422c f9be 6279 ac3f 8c6e 5bbf 766b a03f
000000b0: b5e6 703e c59c 87bf 2320 503f 876e 983e
000000c0: 63b6 283e 0e4b 773f 11e5 32be 2187 403f
000000d0: b500 c8bf b12e e43f 9b8d 4c3f cd34 f5be
000000e0: 2896 06bf 4f75 4fbf 7357 233f 7da9 623f
000000f0: 1b0c 25bf 5ee2 53be bfc7 8abe 8773 da3f

l2.bias f4 [8]
0.68286043 0.500059 0.07361462 0.4711941 0.9429879 0.4248922 0.6120239 -0.12367893
00000000: f1cf 2e3f de03 003f 43c3 963d 5a40 f13e
00000010: a867 713f 788b d93e 99ad 1c3f 614b fdbd

l3.weight f4 [13, 8]
-0.5468317 -1.3176134 0.9170568 -1.0257105 0.32889014 -1.3935558 -1.2266165 -1.0040576
-1.7667804 0.39426398 0.20292507 0.045797516 -0.010679091 -0.00083911413 -1.3923688 0.37793377
0.38287392 0.7961104 -0.3784647 -1.2092141 -0.04609551 -1.1322052 0.23897257 -1.9654913
-0.780327 -0.5541935 -1.8864677 -0.6052697 1.1270212 -1.5339261 -0.73167753 -1.2670685
-1.0059083 -1.3720263 -0.85924786 -0.10860478 0.23651233 -0.41240853 1.2224488 -1.7064332
-0.6570455 0.87756294 -0.6434962 0.48666337 -0.6301563 0.7737531 0.1681906 -0.63764066
0.6078266 0.6868683 0.46955606 -0.81050617 -0.83938354 -0.54754204 -1.7014174 -0.6378595
0.7284579 -0.98156714 -1.9830248 0.8599499 -0.29456115 -0.21245159 -0.21795614 -0.899089
0.94053495 -0.30262977 -2.0551498 -0.9350624 -0.9557662 -1.6988276 1.0180148 -1.2970977
0.4101111 -0.04312996 0.018056626 -0.5021533 0.057530742 -2.3694153 -1.2435325 0.6407319
-0.90454376 -1.4876227 -1.3318048 0.7547128 0.29309815 -0.022447763 -0.44624346 0.6793525
-1.2015802 0.5405784 -0.06436888 -1.5861931 0.2630834 -2.3459928 0.47868502 0.39487877
0.45851064 -1.0813675 0.12082007 0.36118132 -1.9800465 0.90648437 -0.40522572 -1.6439928
00000000: 2afd 0bbf 8ea7 a8bf 3cc4 6a3f 7b4a 83bf
00000010: 4a64 a83e 0960 b2bf c501 9dbf f684 80bf
00000020: dc25 e2bf f8dc c93e 97cb 4f3e 2d96 3b3d
00000030: 5bf7 2ebc fff7 5bba 2439 b2bf 8980 c13e
00000040: 0d08 c43e e4cd 4b3f 20c6 c1be 87c7 9abf
00000050: a5ce 3cbd 1aec 90bf 3ab5 743e 3895 fbbf
00000060: 83c3 47bf a0df 0dbf c677 f1bf f4f2 1abf
00000070: 3b42 903f b157 c4bf 384f 3bbf 4d2f a2bf
00000080: 9ac1 80bf 8f9e afbf abf7 5bbf 2f6c debd
00000090: 4a30 723e 3627 d3be 3479 9c3f 676c dabf
000000a0: 2234 28bf f7a7 603f 2bbc 24bf f12b f93e
000000b0: ec51 21bf af14 463f 283a 2c3e 6b3c 23bf
000000c0: 869a 1b3f 9ad6 2f3f a769 f03e 557d 4fbf
000000d0: d7e1 56bf b72b 0cbf 0cc8 d9bf c34a 23bf
000000e0: 387c 3a3f fc47 7bbf c2d3 fdbf ad25 5c3f
000000f0: b8d0 96be e98c 59be e52f 5fbe b22a 66bf
00000100: e6c6 703f 4af2 9abe 9387 03c0 4060 6fbf
00000110: 18ad 74bf 2f73 d9bf 4f4e 823f 4c07 a6bf
00000120: 15fa d13e 0aa9 30bd 7deb 933c 1e8d 00bf
00000130: 5ba5 6b3d 80a4 17c0 132c 9fbf 0107 243f
00000140: 2e90 67bf 6c6a bebf 9478 aabf dc34 413f
00000150: f610 963e 5fe4 b7bc 067a e4be 0cea 2d3f
00000160: 61cd 99bf 5963 0a3f d5d3 83bd 6008 cbbf
00000170: deb2 863e bf24 16c0 3416 f53e 8d2d ca3e
00000180: e8c1 ea3e 406a 8abf 8370 f73d c2ec b83e
00000190: 2a72 fdbf 5c0f 683f bf79 cfbe 5b6e d2bf

l3.bias f4 [13]
0.30104026 -0.6273785 0.088477544 0.45232776 0.41640976 -0.2164698 -0.5106666 -0.32118526
0.1664813 -0.45571855 -0.23320241 -0.18321171 0.3906632
00000000: f321 9a3e e19b 20bf b733 b53d 8197 e73e
00000010: a933 d53e 42aa 5dbe 0cbb 02bf 6572 a4be
00000020: 137a 2a3e f153 e9be 9dcc 6ebe da9b 3bbe
00000030: 0205 c83e
