JARVIS/tanseeha.pth (torch, 5855 bytes, 6 tensors)

l1.weight f4 [8, 65]
0	0xbda00d49	-0.07815034
1	0x3cfc1fe0	0.030776918
2	0x3edc150e	0.42984813
3	0x3ec30212	0.38087517
4	0xbd8d1d6e	-0.06890379
5	0x3e412988	0.18863499
6	0x3d018e44	0.031629816
7	0xbee4f5c1	-0.44718745
8	0xbcbc4023	-0.022979802
9	0x3d9b3b7a	0.07579704
10	0x3dfd568c	0.12370023
11	0xbe075ff9	-0.13220204
12	0x3cc8de93	0.024520194
13	0xbf011c03	-0.5043337
14	0x3ed1a294	0.4094435
15	0x3e83ffa1	0.25780967
16	0x3e6e7119	0.23285331
17	0x3e1f9a93	0.15586309
18	0x3f07ea8a	0.53092253
19	0x3d9a7ac9	0.07542951
20	0x3e8e6d68	0.27817845
21	0x3f0467e7	0.5172104
22	0x3e79fc64	0.24412686
23	0x3eff2d27	0.49839136
24	0x3f0aa6e6	0.54160917
25	0xbe45907a	-0.19293395
26	0x3f05ecca	0.52314436
27	0x3ed2956d	0.41129628
28	0x3b3f8311	0.0029222409
29	0xbd9d5741	-0.07682658
30	0xbd2da25a	-0.04239116
31	0x3f075d19	0.5287643
32	0xbdc3d696	-0.095624134
33	0x3e9d794c	0.30756605
34	0xbe516b08	-0.20450985
35	0xbc5f3d89	-0.013625511
36	0x3e1b48b9	0.1516446
37	0xbdbc8a5e	-0.09206079
38	0x3d1e0011	0.038574282
39	0x3f09ce43	0.53830355
40	0xbdba1732	-0.090864554
41	0x3ec717c6	0.38885325
42	0x3ed618ee	0.41815895
43	0xbdb0fe6e	-0.086422786
44	0x3eca4bae	0.39510864
45	0x3eececd6	0.4627444
46	0xbee4e956	-0.4470927
47	0xbe41eda2	-0.18938306
48	0x3e30b12a	0.17255083
49	0x3d6329cf	0.055459794
50	0x3e7293b0	0.23689151
51	0xbef16840	-0.4714985
52	0x3d21b583	0.039479744
53	0x3ec2f904	0.3808061
54	0x3da2d9f8	0.079517305
55	0x3da932db	0.08261653
56	0x3e85d858	0.2614162
57	0x3e6ada94	0.22934943
58	0xbcc223a6	-0.02369864
59	0xbc1b4f00	-0.009479284
60	0xbe904839	-0.28180102
61	0x3ef52715	0.4788138
62	0x3ea7164c	0.326342
63	0x3f03f6b3	0.5154831
64	0x3e96ceef	0.29454753
65	0xbe08081e	-0.13284346
66	0xbe383652	-0.17989472
67	0x3e2e4d73	0.17021732
68	0xbdbe0ae3	-0.0927942
69	0x3e867838	0.26263595
70	0x3f0ece1c	0.5578325
71	0x3efb00a8	0.49023938
72	0x3d5db2ad	0.054125477
73	0x3d6e69d3	0.05820639
74	0xbe2752af	-0.16340135
75	0xbe7e481d	-0.24832197
76	0xbdf27fde	-0.11840795
77	0xbe487f53	-0.1957982
78	0x3f64e751	0.8941546
79	0xbe36d585	-0.17854889
80	0x3d37876f	0.044806894
81	0xbe210bf6	-0.15727219
82	0xbe1652be	-0.14680001
83	0x3f19a34e	0.6001481
84	0xbf013b95	-0.5048154
85	0x3f1a160b	0.60189885
86	0x3f4d8f7e	0.80297077
87	0x3e828abb	0.25496468
88	0x3f682e40	0.9069557
89	0x3f4da79c	0.80333877
90	0xbe394e01	-0.18096162
91	0x3f6cc802	0.9249269
92	0x3f554276	0.83304536
93	0x3ef45401	0.4772034
94	0x3b37a2f1	0.0028020705
95	0x3f5662dd	0.83744603
96	0xbefeb5dc	-0.49748123
97	0xbeb177f6	-0.34661835
98	0xbd1e88fa	-0.03870485
99	0xbe090dce	-0.13384172
100	0x3eae46cc	0.3403839
101	0xbe5bf18e	-0.21478865
102	0xbe660e9a	-0.22466508
103	0xbd258b62	-0.04041613
104	0x3f0460bc	0.51710105
105	0x3e967378	0.2938497
106	0x3e5eab93	0.21745138
107	0x3f31bf02	0.6943208
108	0xbe9e3d96	-0.3090636
109	0xbe843e25	-0.25828663
110	0xbdf3c640	-0.119030476
111	0x3d041e08	0.032255203
112	0xbdf8f0b3	-0.12155285
113	0xbde266db	-0.110547744
114	0xbdec2f21	-0.115324266
115	0x3e8048a1	0.2505541
116	0x3cdb2938	0.026753053
117	0xbd77e85d	-0.060524333
118	0xbd96f223	-0.07370403
119	0xbf013d1e	-0.5048388
120	0xbf0138e0	-0.5047741
121	0xbe920016	-0.2851569
122	0x3ec842f0	0.3911357
123	0x3ee2cc81	0.4429665
124	0x3eee9043	0.46594438
125	0xbe0e6a54	-0.13907748
126	0x3eca171d	0.3947076
127	0x3db25d32	0.08709182
128	0xbe40fc43	-0.1884623
129	0x3e1de0df	0.15417813
130	0xbe528d52	-0.20561722
131	0x3f1410d9	0.5783821
132	0xbdde4c19	-0.10854358
133	0x3f0ca337	0.54936546
134	0xbdccef98	-0.100066364
135	0x3ea39c99	0.31955412
136	0xbee13700	-0.43987274
137	0xbe2a4ebf	-0.16631602
138	0x3e0630ba	0.13104525
139	0x3ec1ade6	0.37827986
140	0x3f0b9e7b	0.54538697
141	0xbde6214c	-0.112368196
142	0x3ed8854e	0.42289203
143	0xbe0f4f3c	-0.1399507
144	0x3f0b50db	0.5442025
145	0xbed0fa9d	-0.40816203
146	0xbdadaa1f	-0.08479714
147	0xbcf2c3ab	-0.029634317
148	0x3e161750	0.1465733
149	0xbea170f2	-0.31531483
150	0x3e258a56	0.16166052
151	0x3ee32898	0.44366908
152	0x3e315f53	0.1732152
153	0x3ec8eb23	0.39241895
154	0x3eccc7f1	0.39996293
155	0xbd9e9448	-0.07743126
156	0x3ea72cad	0.32651272
157	0x3eddb5bd	0.43302718
158	0x3d9560b2	0.07293834
159	0x3e3a0a43	0.18167977
160	0xbe0c3c1a	-0.13694802
161	0x3f3bceef	0.7336263
162	0xbeee17eb	-0.46502623
163	0x3e99e316	0.30056065
164	0xbf253627	-0.64535755
165	0x3dd2c158	0.10290784
166	0xbcd02c3a	-0.025411714
167	0x3ee423ad	0.44558468
168	0xbe1fb64e	-0.15596887
169	0x3e8fee53	0.28111514
170	0x3d6d3169	0.05790845
171	0xbdeec03f	-0.11657762
172	0xbdb963d0	-0.09052241
173	0x3eb5fae1	0.35542968
174	0x3ef1187d	0.47088996
175	0x3f1675f6	0.58773744
176	0xbe2a4e3a	-0.16631404
177	0xbd585f99	-0.052825544
178	0x3e92893f	0.28620335
179	0x3d2149fc	0.039377198
180	0xbe04afd3	-0.12957697
181	0xbe831bbb	-0.25607094
182	0x3eba1b17	0.36348793
183	0x3d109cc5	0.035305757
184	0xbea1dc1e	-0.3161325
185	0xbea16e49	-0.31529453
186	0x3e2c4407	0.16822825
187	0xbf1512f2	-0.58232033
188	0xbd942b2c	-0.07234797
189	0xbe947f03	-0.29003152
190	0x386779f2	5.5188262e-05
191	0x3e6f80d6	0.23388991
192	0x3f03c032	0.5146514
193	0x3f046242	0.5171243
194	0x3ef820fd	0.48462668
195	0x3f352adc	0.70768523
196	0xbe8164d5	-0.2527224
197	0x3f0c8390	0.5488825
198	0x3e0b7a82	0.13620952
199	0x3d52fdf7	0.05151173
200	0x3e14c825	0.14529474
201	0x3f0a303a	0.5397984
202	0xbeb55431	-0.35415795
203	0xbe9c5eb9	-0.30541018
204	0xbd8cff38	-0.068846166
205	0xbe2de238	-0.16980827
206	0xbe5fc579	-0.21852674
207	0xbe4bb5ba	-0.19893542
208	0xbf028995	-0.50991184
209	0x3ee55a6d	0.44795552
210	0x3f62fde3	0.8866865
211	0x3f721cea	0.9457537
212	0x3ef9201a	0.48657304
213	0xbe2e7f73	-0.17040806
214	0xbec06b26	-0.37581748
215	0xbeb00b2a	-0.34383518
216	0xbec06e3f	-0.3758411
217	0x3ed89fe3	0.42309484
218	0xbec0a7b6	-0.37627953
219	0xbec06673	-0.37578163
220	0xbeac5143	-0.33655748
221	0xbec076eb	-0.37590727
222	0xbec06a27	-0.37580988
223	0xbd86825b	-0.06567832
224	0xbe8316cf	-0.2560334
225	0xbc37eb0d	-0.011225474
226	0xbe85866f	-0.26079127
227	0x3f84dd5e	1.0380056
228	0x3e66620e	0.22498342
229	0x3f66b7e2	0.9012433
230	0xbdb8dd86	-0.09026627
231	0x3f78c1a2	0.9717046
232	0xbe9059eb	-0.28193602
233	0x3f08bb99	0.5341125
234	0xbe524d6d	-0.20537348
235	0xbdb5927e	-0.08865832
236	0x3eef3d7d	0.467266
237	0xbf3763b6	-0.7163652
238	0xbe6b9690	-0.23006654
239	0x3cf8e750	0.030383736
240	0xbd10a8a6	-0.035317086
241	0xbe54375b	-0.20724241
242	0xbc9665d0	-0.018359095
243	0x3b9282b3	0.004471147
244	0x3ed10274	0.40822184
245	0x3e411305	0.18854912
246	0xbe9eb8b2	-0.31000286
247	0xbe49a280	-0.19690895
248	0x3f270903	0.65248126
249	0xbec04570	-0.37552977
250	0xbec07212	-0.3758703
251	0x3da2aa40	0.07942629
252	0x3f33fe1b	0.7030961
253	0xbed3051c	-0.41214836
254	0x3ea58e18	0.3233497
255	0xbd1f5353	-0.038897824

l1.bias f4 [8]
0	0x3f8c61d7	1.0967358
1	0x3f013b9e	0.50481594
2	0x3ea16ec9	0.31529835
3	0x3ec06843	0.37579545
4	0x3f1c1ffb	0.609863
5	0x3e8cbaa3	0.27486143
6	0x3f0391bc	0.5139425
7	0x3f0caeb8	0.549541

l2.weight f4 [8, 8]
0	0x3f8ea2ca	1.1143429
1	0xbf418de6	-0.75607145
2	0x3ef5f159	0.48035696
3	0xbee35b7f	-0.44405743
4	0xbf84bce7	-1.0370148
5	0x3f21b451	0.63165766
6	0x3e421f6a	0.18957296
7	0xbf6509fe	-0.8946837
8	0x3f1c4882	0.6104814
9	0x3fa6115c	1.2974048
10	0x3f13bf76	0.5771402
11	0xbe8cb395	-0.2748076
12	0xbe885645	-0.26628318
13	0x3f3118db	0.6917855
14	0x3f998329	1.1993152
15	0xbf2231d6	-0.63357294
16	0x3f018e55	0.50607806
17	0x3df8b8c6	0.12144618
18	0x3eda8042	0.42675978
19	0xbf8b715a	-1.0893967
20	0x3f82542a	1.0181935
21	0xbf666764	-0.9000151
22	0x3e541b0c	0.20713443
23	0x3f9d19b3	1.2273468
24	0x3e2171fc	0.15766138
25	0x3f9a7020	1.2065468
26	0x3e304b88	0.17216313
27	0xbfa89de1	-1.3173181
28	0xbe91fdba	-0.2851389
29	0xbe25f22c	-0.16205662
30	0x3f6e83f7	0.9317011
31	0x3eb4d7df	0.35320947
32	0xbe8294d8	-0.25504184
33	0x3f74960f	0.9554147
34	0xbf62c342	-0.8857919
35	0xbe841cb0	-0.25803137
36	0x3f62109b	0.8830659
37	0x3f8d7011	1.1049825
38	0x3f110dc7	0.5666165
39	0x3e288b79	0.16459455
40	0x3f08f349	0.53496224
41	0x3d874267	0.06604462
42	0x3fa6f45c	1.3043323
43	0x3f9777cd	1.1833435
44	0x3ee9170a	0.4552539
45	0xbf193cdb	-0.59858483
46	0x3f7c62f8	0.98588514
47	0x3f8f99bc	1.1218791
48	0x3f41800c	0.7558601
49	0xbca27602	-0.019831661
50	0xbfa35def	-1.2763041
51	0x3f986759	1.1906539
52	0x3dda15c7	0.10648685
53	0xbf3eec80	-0.7457962
54	0x3f8012e3	1.0005764
55	0xbe519b3c	-0.20469373
56	0x3f513d05	0.81733733
57	0x3f256b9a	0.6461731
58	0x3f47cdb6	0.78048265
59	0xbefa8147	-0.48926756
60	0x3e1f7779	0.15572919
61	0xbf75e653	-0.9605457
62	0xbeaaab8c	-0.33334005
63	0x3f0c5ba5	0.5482734

l2.bias f4 [8]
0	0x3f851670	1.0397472
1	0xbeb756f4	-0.35808527
2	0x3f85efe3	1.0463833
3	0xbe3267ca	-0.17422405
4	0x3e6b8450	0.22999692
5	0xbef198e2	-0.47186953
6	0x3f9842d7	1.1895398
7	0x3f0ff170	0.5622778

l3.weight f4 [8, 8]
0	0xbf7727bf	-0.9654502
1	0x3e9ee129	0.3103116
2	0xbf88eaa6	-1.0696609
3	0xbf9b154e	-1.2115877
4	0x3eb8bcd3	0.3608156
5	0x3daf926c	0.0857285
6	0x3c7e3588	0.0155156925
7	0xbf14a0dc	-0.5805795
8	0xbf80a369	-1.0049869
9	0xbf7ae2a6	-0.9800209
10	0x3edf4d96	0.4361388
11	0xbfa1de94	-1.264605
12	0x3f6ec226	0.93264997
13	0xbeae10e1	-0.33997253
14	0xbf88c3b7	-1.0684727
15	0xbf50ee1d	-0.8161333
16	0xbf083dbc	-0.532192
17	0x3f0d453c	0.5518377
18	0xbf8284cc	-1.0196776
19	0x3f2ed85b	0.6829888
20	0x3f096296	0.53666055
21	0xbfa1130e	-1.258394
22	0xbf8c0636	-1.0939395
23	0xbe15d9a0	-0.14633799
24	0xbfe1495c	-1.7600513
25	0xbfbb2e2e	-1.4623468
26	0xbf288826	-0.65832746
27	0xbf986dbe	-1.1908491
28	0xbf166d3e	-0.5876044
29	0x3f02e23d	0.5112646
30	0x3f7e1266	0.99246824
31	0xbeace276	-0.33766526
32	0xbf9439cb	-1.1580137
33	0xbe179524	-0.14802986
34	0x3ea01b33	0.3127075
35	0x3f7b0c40	0.98065567
36	0xbeea3617	-0.45744392
37	0x3cb8e93d	0.022572154
38	0xbe8b6ee0	-0.27233028
39	0x3dd4c6e2	0.103894964
40	0x3f14bb61	0.5809842
41	0x3f0195bc	0.506191
42	0xbf90a800	-1.130127
43	0xbeeb02f4	-0.4590069
44	0xbf69b5e0	-0.91293144
45	0x3ea13940	0.3148899
46	0xbf6e68ba	-0.9312855
47	0xbef9f8a6	-0.48822516
48	0xbfb6cfa8	-1.4282122
49	0xbfd09ac5	-1.6297232
50	0x3f1d52d3	0.61454505
51	0xbfcbc3ed	-1.5919167
52	0xbf6f5fcf	-0.9350557
53	0x3f26f37c	0.6521528
54	0xbf973f7c	-1.1816249
55	0x3f2498c3	0.64295596
56	0x3fc10405	1.5079352
57	0xbf869c9e	-1.0516546
58	0x3f1981c5	0.5996364
59	0xc002815c	-2.0391455
60	0xbeba4f63	-0.36388692
61	0xbfb367ba	-1.401603
62	0x3f51a941	0.81898886
63	0x3eaa64ce	0.33280033

l3.bias f4 [8]
0	0xbe14b54c	-0.14522284
1	0x3eb0b571	0.3451343
2	0xbd925549	-0.07145173
3	0x3e903219	0.2816322
4	0x3e2c7d60	0.16844702
5	0xbd987b1a	-0.07445355
6	0x3ce9b89a	0.028530408
7	0x3f1795d6	0.59213006
